python_practice/23_12_14/mnist_simple_nn.pth (torch, 208420 bytes, 8 tensors)

linear_relu_stack.0.weight f4 [64, 784]
-0.012222502 0.0038845749 -0.04627048 -0.0072738104 0.007241759 -0.050797574 -0.046481226 0.014138993
-0.018193599 -0.026362645 -0.033387072 -0.005388005 0.24282542 0.26916143 -0.2760463 -0.203327
0.007271566 0.0042204615 -0.021794703 -0.02167702 -0.04510495 -0.032880325 -0.043808945 -0.017740427
0.01261652 -0.022126235 -0.0020471197 0.010027931 0.01484728 -0.0068885447 -0.0508496 0.0044820486
-0.75858456 -0.62251496 0.21330975 0.17465256 0.22331761 -0.49286526 -0.4678492 -0.16617352
0.21899807 0.65534043 -0.18560293 -0.026878316 1.1938165 1.498005 0.7035577 0.07506977
-0.07421518 0.0016510306 0.15216853 0.34945711 -0.03259075 0.0046803067 -0.0013279351 0.0148625225
-0.043841764 -0.013555659 0.1459987 -0.14245448 -0.30658406 0.76329947 0.19167459 0.15006135
0.8647352 0.5549467 0.61399335 1.0751828 1.0229813 0.5786478 0.5845747 -0.21199483
0.072006226 -0.08439409 -0.19690228 -0.22829886 -0.079976656 0.4626227 0.20762053 -0.082290374
-0.12227741 -0.22207643 0.007372676 -0.035411507 -0.0030938194 -0.0230147 -0.42386183 -0.2866413
-0.17357655 0.8744394 1.0740862 0.69875276 0.8697655 0.5102168 0.44254658 0.5408457
0.015470027 0.02724226 0.5616433 0.2512584 0.17425694 0.1416341 -0.024179991 0.34456825
0.30085853 -0.15159234 -0.37469468 0.059420332 0.2926326 -0.80228823 0.15617993 -0.022642229
-0.054504953 0.13735257 -0.37751228 -0.22134428 0.0033358429 0.84661317 0.32495412 0.056188215
-0.000341359 0.21027718 0.4331976 0.11654618 0.0031905198 -0.09020651 -0.21401672 -0.068917334
0.24482329 -0.14035209 -0.29010516 0.06447334 0.014375546 -0.22643958 -0.07574498 -0.19721961
-0.35650244 -0.33134156 -0.19142528 0.2921229 0.013734963 0.0074783564 -0.32794645 -0.4975616
0.0007576735 -0.10407541 -0.19437465 -0.044324096 0.33430758 0.24470258 0.4990811 0.19448094
0.17434819 -0.09888415 -0.44684586 -0.15456496 0.3713411 -0.14693078 -0.028455455 0.017065125
-0.24229737 -0.15502508 -0.0020328679 0.23419225 0.010187359 0.10412585 0.26210085 0.25556746
-0.01767886 0.39881405 -0.2060511 0.46780655 0.97504383 1.0076461 0.1754564 -0.004848017
0.04862258 0.06831982 -0.25385642 -0.16354139 -0.1510348 -0.066844404 -0.25547558 0.06815548
0.06295685 -0.0062888376 -0.38108358 -0.074027285 -0.4897844 -0.18494335 -0.015280181 -0.1901035
0.0608167 0.08907322 0.022018572 0.3845849 -0.08171404 0.53683436 -0.043353293 1.1417834
1.8759118 1.4394019 0.24701016 0.08724125 0.013713905 0.047048364 -0.5124917 -0.3212851
-0.03241129 -0.13211204 0.48309186 0.2928928 0.21275106 0.14898345 -0.1999402 -0.45608813
-0.25432423 -0.48327324 0.12410452 0.21612073 -0.032660928 -0.5719697 0.25443247 0.437105
0.18663579 -0.13220349 0.26355198 1.2210228 1.5971093 1.0578504 0.08542183 -0.035856374
0.07760288 0.09547772 -0.06742243 -0.46679777 -0.9402795 -0.22181249 -0.020499151 0.055241235
0.19404699 0.059725806 -0.28844485 -0.32375264 -0.39006168 -0.36583835 0.29177332 0.1294137
-0.18008235 -0.13618362 0.36957794 -0.09747083 -0.100302726 -0.12271305 0.73857766 0.76418906
00000000: e440 48bc 5a94 7e3b 1d86 3dbd 2559 eebb
00000010: 474c ed3b 1e11 50bd 1963 3ebd 3ca7 673c
00000020: be0a 95bc 79f6 d7bc e2c0 08bd dd8d b0bb
00000030: 3aa7 783e 87cf 893e f155 8dbe f434 50be
00000040: 5146 ee3b cc4b 8a3b ce8a b2bc 0194 b1bc
00000050: f8bf 38bd 85ad 06bd 0271 33bd 5f54 91bc
00000060: 85b5 4e3c 1442 b5bc f828 06bb 314c 243c
00000070: 0242 733c 4db9 e1bb ac47 50bd 26de 923b
00000080: 9932 42bf 245d 1fbf df6d 5a3e 1fd8 323e
00000090: 5fad 643e d658 fcbe ee89 efbe 6429 2abe
000000a0: 0841 603e 64c4 273f b20e 3ebe ea2f dcbc
000000b0: fbce 983f a1be bf3f 5c1c 343f 2ebe 993d
000000c0: 21fe 97bd 6567 d83a 11d2 1b3e 0bec b23e
000000d0: e17d 05bd 425d 993b 1c0e aeba f081 733c
000000e0: 6c93 33bd 8e18 5ebc af80 153e 96df 11be
000000f0: 96f8 9cbe 9867 433f 5846 443e afa9 193e
00000100: 495f 5d3f fd10 0e3f ab2e 1d3f 979f 893f
00000110: 0df1 823f 4322 143f b0a6 153f 2c15 59be
00000120: 0078 933d cfd6 acbd c0a0 49be 2dc7 69be
00000130: cdca a3bd e2dc ec3e 7a9a 543e db87 a8bd
00000140: 946c fabd 0168 63be 7d96 f13b a80b 11bd
00000150: adc1 4abb 5389 bcbc 6b04 d9be a6c2 92be
00000160: 0dbe 31be 43db 5f3f a87b 893f 76e1 323f
00000170: f4a8 5e3f 919d 023f 7795 e23e dd74 0a3f
00000180: ff75 7d3c 292b df3c dbc7 0f3f f1a4 803e
00000190: 6970 323e 8808 113e 1e15 c6bc 406b b03e
000001a0: 210a 9a3e 063b 1bbe fbd7 bfbe bc62 733d
000001b0: f1d3 953e c362 4dbf a2ed 1f3e 327c b9bc
000001c0: 9640 5fbd 27a6 0c3e 4a49 c1be 13a8 62be
000001d0: 289e 5a3b a4bb 583f 6360 a63e 9d25 663d
000001e0: 6ef8 b2b9 e752 573e 13cc dd3e c3af ee3d
000001f0: 0a18 513b 31be b8bd 3327 5bbe 8824 8dbd
00000200: f5b2 7a3e 75b8 0fbe aa88 94be 990a 843d
00000210: 6987 6b3c c7df 67be 2f20 9bbd f0f3 49be
00000220: 7d87 b6be 9aa5 a9be fd04 44be 2291 953e
00000230: 9c08 613c 000d f53b 99e8 a7be 65c0 febe
00000240: 9c9e 463a 7d25 d5bd 260a 47be 2f8d 35bd
00000250: 5d2a ab3e 5093 7a3e 8f87 ff3e 0326 473e
00000260: 5588 323e c683 cabd fbc8 e4be 4746 1ebe
00000270: 6c20 be3e 0675 16be 6a1b e9bc 29cc 8b3c
00000280: cd1c 78be e5be 1ebe dd39 05bb 18d0 6f3e
00000290: e1e8 263c ef3f d53d 1532 863e bdd9 823e
000002a0: 42d3 90bc 5b31 cc3e 0fff 52be 5784 ef3e
000002b0: 799c 793f 8cfa 803f d8aa 333e 1ddc 9ebb
000002c0: 7828 473d 43eb 8b3d 78f9 81be 6577 27be
000002d0: dea8 1abe b8e5 88bd b2cd 82be 1a95 8b3d
000002e0: 85ef 803d 9812 cebb 631d c3be 9e9b 97bd
000002f0: 05c5 fabe ca61 3dbe b959 7abc 7eaa 42be
00000300: ef1a 793d 056c b63d 4b60 b43c 50e8 c43e
00000310: b159 a7bd fa6d 093f 3993 31bd f525 923f
00000320: e11d f03f 523e b83f 3bf0 7c3e 8aab b23d
00000330: 49b0 603c c9b5 403d a832 03bf 7b7f a4be
00000340: b3c1 04bd 6148 07be d157 f73e 0cf6 953e
00000350: 6adb 593e 1e8f 183e 20bd 4cbe 6284 e9be
00000360: c936 82be 976f f7be 832a fe3d c14e 5d3e
00000370: 77c7 05bd 9b6c 12bf f944 823e 3acc df3e
00000380: 741d 3f3e 5a60 07be 49f0 863e 7a4a 9c3f
00000390: 146e cc3f a467 873f a4f1 ae3d 22de 12bd
000003a0: 42ee 9e3d d389 c33d c514 8abd 1e00 efbe
000003b0: 28b6 70bf d022 63be d6ed a7bc a244 623d
000003c0: 41b4 463e 0ca3 743d 0baf 93be e8c2 a5be
000003d0: 2ab6 c7be 2a4f bbbe 5063 953e 0685 043e
000003e0: 8267 38be b873 0bbe 5239 bd3e c99e c7bd
000003f0: 846b cdbd fb50 fbbd 6d13 3d3f e5a1 433f

linear_relu_stack.0.bias f4 [64]
0.05116217 0.032414686 -0.03195626 0.057608664 -0.031848595 0.016264737 0.013978821 -0.037538946
0.002620503 -0.02285642 0.043388855 -0.0050597754 -0.006753433 -0.04376515 -0.041844428 -0.012634877
-0.0014081001 -0.010537093 0.017507667 -0.040771153 -0.020453745 0.03148954 -0.0032428035 -0.040131234
0.011051095 0.024711445 -0.020081094 0.00035690653 -0.045938425 0.0151749505 0.040718522 0.011362654
-0.0064478707 0.04449515 -0.002079332 -0.04195195 0.017977437 -0.019811295 -0.029491454 -0.053127997
-0.052228007 0.057405848 -0.026420066 0.037689827 -0.0059137377 0.004068292 -0.032265313 0.034363464
0.037098013 0.006482036 -0.008714287 0.0062507093 0.018833993 -0.016595382 0.05644261 0.009591825
0.027995633 -0.02968745 0.023294762 0.005917602 0.01965069 -0.02370869 -0.033881817 0.038747333
00000000: 6c8f 513d 43c5 043d 91e4 02bd 10f7 6b3d
00000010: ac73 02bd a03d 853c 6d07 653c 70c2 19bd
00000020: bfbc 2b3b 633d bbbc 83b8 313d 79cc a5bb
00000030: e74b ddbb 1643 33bd 1065 2bbd 8402 4fbc
00000040: 0090 b8ba c5a3 2cbc 3d6c 8f3c a7ff 26bd
00000050: 9d8e a7bc 2dfb 003d 3785 54bb a660 24bd
00000060: a70f 353c a86f ca3c 1b81 a4bc 2f1f bb39
00000070: ee29 3cbd 5ba0 783c 77c8 263d 6d2a 3a3c
00000080: a948 d3bb 8c40 363d 6745 08bb cfd5 2bbd
00000090: 6b45 933c 4c4b a2bc 1098 f1bc be9c 59bd
000000a0: 09ed 55bd 6522 6b3d e56e d8bc a660 1a3d
000000b0: 07c8 c1bb 4f4f 853b a228 04bd b4c0 0c3d
000000c0: 16f4 173d 4267 d43b 5ec6 0ebc c0d2 cc3b
000000d0: bf49 9a3c 0af3 87bc 5e30 673d 0827 1d3c
000000e0: 1957 e53c 1833 f3bc a8d4 be3c 72e8 c13b
000000f0: 7cfa a03c ba38 c2bc a9c7 0abd 86b5 1e3d

linear_relu_stack.1.weight f4 [64]
1.42888 1.6928483 1.7132502 1.8855134 1.5892192 1.5494585 1.6822084 1.4228725
1.7894379 1.8985112 1.5223339 1.6953737 1.9110098 1.8870771 2.1171293 1.7080209
1.5331005 1.6720115 1.1883454 1.6952251 1.728653 1.7643218 1.5725831 1.755219
1.7607939 2.3956418 1.2275945 1.1372951 2.3365674 2.0552201 1.7583039 1.3148125
1.1265023 2.0497472 1.8551277 1.5840089 2.0511916 1.8665736 1.7702814 1.5274541
1.9565183 1.9083729 1.7519284 1.8806814 2.0402286 1.6764812 2.1964114 2.3039267
1.5657071 1.5029047 1.7736748 1.1452397 1.9376917 1.8755497 2.1486807 1.5261337
1.7400315 1.5241803 1.6768992 1.9814988 1.5290405 2.5719125 2.037838 1.7889328
00000000: 8ae5 b63f 41af d83f c84b db3f 8158 f13f
00000010: 896b cb3f a854 c63f 9b52 d73f b020 b63f
00000020: 4d0c e53f 6a02 f33f d6db c23f 0102 d93f
00000030: f89b f43f be8b f13f 0c7f 0740 6ea0 da3f
00000040: a33c c43f 7904 d63f b41b 983f 23fd d83f
00000050: 8044 dd3f 4cd5 e13f 674a c93f 04ab e03f
00000060: b261 e13f 3252 1940 d121 9d3f e392 913f
00000070: 528a 1540 ba88 0340 1a10 e13f c74b a83f
00000080: 3a31 903f 0f2f 0340 d374 ed3f cec0 ca3f
00000090: b946 0340 e2eb ee3f 9598 e23f 9e83 c33f
000000a0: 316f fa3f 9045 f43f 313f e03f 2bba f03f
000000b0: 1b93 0240 f096 d63f 0192 0c40 8973 1340
000000c0: 1769 c83f 2e5f c03f c707 e33f 3797 923f
000000d0: 4806 f83f 0312 f03f fc83 0940 5958 c33f
000000e0: 5ab9 de3f 5718 c33f a2a4 d63f c1a1 fd3f
000000f0: 99b7 c33f 379a 2440 f06b 0240 c0fb e43f

linear_relu_stack.1.bias f4 [64]
-0.5268144 0.04998472 -0.9625487 -0.44026 -0.39985716 -0.54152066 -0.55856216 -0.59725505
-0.015811803 0.4956183 -0.12583958 0.29560813 -0.4742963 0.009271963 -0.011462517 -0.4672595
-0.56032205 0.080715366 0.23002434 -0.24342906 -0.32727048 -0.11896111 0.06103863 -0.110174425
-0.8763575 -0.7388744 -0.009154648 0.1778405 -0.35761955 -0.44315 -1.1410588 -0.13818325
0.057910424 -0.64135057 -0.8565233 -0.69176596 -0.860688 -0.738453 -0.37529224 -0.47313958
-0.79852986 -0.8559104 -0.56734115 0.008423618 -0.6174566 -0.18129863 -0.66269994 -0.60622495
0.05875574 -0.19009443 -0.15090567 0.18517317 -0.35104558 -0.4966668 -0.6577173 -0.29460698
-0.21851842 0.04866346 -0.20043172 -0.622225 -0.2894771 -0.8458611 -0.4155632 -0.24737793
00000000: 4fdd 06bf c7bc 4c3d 9769 76bf c269 e1be
00000010: 14ba ccbe 19a1 0abf eefd 0ebf b5e5 18bf
00000020: c187 81bc afc1 fd3e 17dc 00be f359 973e
00000030: f7d6 f2be 6ee9 173c 48cd 3bbc a33c efbe
00000040: 4471 0fbf 194e a53d 808b 6b3e 7845 79be
00000050: ff8f a7be e2a1 f3bd a403 7a3d 21a3 e1bd
00000060: f758 60bf df26 3dbf 60fd 15bc d21b 363e
00000070: e919 b7be 8fe4 e2be 370e 92bf e97f 0dbe
00000080: 7b33 6d3d 8d2f 24bf 1c45 5bbf 9317 31bf
00000090: 0c56 5cbf 410b 3dbf 4e26 c0be 5a3f f2be
000000a0: 746c 4cbf f21c 5bbf 453d 11bf 3703 0a3c
000000b0: a311 1ebf 59a6 39be b4a6 29bf 8f31 1bbf
000000c0: dca9 703d 1da8 42be 0487 1abe 099e 3d3e
000000d0: 3fbc b3be 1c4b febe 2960 28bf bad6 96be
000000e0: 4bc3 5fbe 5653 473d f93d 4dbe 234a 1fbf
000000f0: 5836 94be 5a8a 58bf b3c4 d4be a450 7dbe

linear_relu_stack.1.running_mean f4 [64]
-3.9824667 21.01394 23.343472 -9.848125 79.80233 9.408564 3.1539187 5.1549344
34.392998 -37.899593 69.78652 -6.039931 14.586404 50.389305 -6.1666193 42.720684
-1.9583657 2.209586 30.899792 -31.726734 25.903221 -21.551521 -3.4708936 29.13897
24.99097 -33.880714 20.620287 18.907784 23.90517 -13.037702 -40.997906 15.213839
28.272873 3.8938217 -40.884727 10.26682 -18.277046 13.101394 -19.985704 96.91755
-71.75321 -36.306007 -20.298199 -44.767143 -0.21813576 9.009915 4.544183 -24.859396
7.0395627 25.300703 -8.112121 -20.892773 97.508026 -1.5638527 -48.886185 -50.906128
17.822456 -14.583657 9.423279 -8.121475 11.738666 -6.0554247 -27.996008 36.790894
00000000: bce0 7ec0 8d1c a841 6ebf ba41 ec91 1dc1
00000010: cb9a 9f42 7a89 1641 ced9 4940 39f5 a440
00000020: 6e92 0942 2f99 17c2 b392 8b42 1d47 c1c0
00000030: e961 6941 a68e 4942 f254 c5c0 fbe1 2a42
00000040: baab fabf db69 0d40 c632 f741 5ad0 fdc1
00000050: cc39 cf41 8469 acc1 1f23 5ec0 9c1c e941
00000060: 82ed c741 da85 07c2 59f6 a441 2443 9741
00000070: ca3d bf41 6d9a 50c1 dbfd 23c2 e26b 7341
00000080: d82e e241 6034 7940 f689 23c2 e544 2441
00000090: 6437 92c1 4f9f 5141 b9e2 9fc1 c9d5 c142
000000a0: a581 8fc2 5a39 11c2 b662 a2c1 8e11 33c2
000000b0: fb5e 5fbe 9d28 1041 f269 9140 0be0 c6c1
000000c0: 1944 e140 d767 ca41 3fcb 01c1 6624 a7c1
000000d0: 1c04 c342 532c c8bf 748b 43c2 e09f 4bc2
000000e0: 6494 8e41 a956 69c1 c0c5 1641 90f1 01c1
000000f0: 93d1 3b41 0ac6 c1c0 d3f7 dfc1 e029 1342

linear_relu_stack.1.running_var f4 [64]
282.10535 213.9494 411.55795 392.24472 294.15717 310.4968 437.06592 253.23114
393.28214 451.61154 302.08997 267.74887 293.57776 418.92505 369.8291 238.69943
288.52704 241.29668 264.56973 269.037 487.46918 248.08582 315.46655 509.64835
236.20534 261.0466 154.05165 241.87646 375.49426 233.39606 242.4866 248.20906
194.50842 414.5587 367.42014 360.84937 354.7129 219.1616 277.8786 386.7264
286.13522 187.84654 229.0867 279.9159 305.06403 298.52063 408.10175 629.45233
384.4181 296.50113 266.78882 291.5635 417.46844 342.8695 367.4275 221.17601
303.70212 309.00067 249.25536 311.572 327.94205 321.10947 336.08295 373.09763
00000000: 7c0d 8d43 0cf3 5543 6bc7 cd43 531f c443
00000010: 1e14 9343 973f 9b43 7088 da43 2c3b 7d43
00000020: 1da4 c443 47ce e143 840b 9743 dbdf 8543
00000030: f4c9 9243 6876 d143 20ea b843 0eb3 6e43
00000040: 7643 9043 f34b 7143 ed48 8443 bc84 8643
00000050: 0ebc f343 f815 7843 b8bb 9d43 fdd2 fe43
00000060: 9134 6c43 f785 8243 390d 1a43 60e0 7143
00000070: 44bf bb43 6465 6943 927c 7243 8535 7843
00000080: 2882 4243 8347 cf43 c7b5 b743 b86c b443
00000090: 405b b143 5f29 5b43 76f0 8a43 fb5c c143
000000a0: 4f11 8f43 b7d8 3b43 3216 6543 3cf5 8b43
000000b0: 3288 9843 a442 9543 060d cc43 f35c 1d44
000000c0: 8435 c043 2540 9443 f864 8543 21c8 9143
000000d0: f6bb d043 4c6f ab43 b8b6 b743 0f2d 5d43
000000e0: dfd9 9743 1680 9a43 5f41 7943 37c9 9b43
000000f0: 95f8 a343 038e a043 9e0a a843 7f8c ba43

linear_relu_stack.3.weight f4 [10, 64]
0.15698859 0.3163914 -0.50077826 0.47597125 -0.65727186 0.3010962 -0.0011508339 -0.46381193
-0.4090253 0.9156003 0.3241006 0.4597059 -0.089697555 0.24951784 0.5726167 -0.47721115
-0.87773585 -1.6315418 -0.62112224 0.2866324 -0.68082386 -0.3085861 0.67672664 0.07703825
0.105209604 -0.48443308 -0.13466476 -0.30560732 -0.470358 -2.038455 0.08161056 -0.7979165
-0.7850884 0.5422519 -0.25361198 -0.5658379 -0.28233063 -1.4368775 0.99813795 0.45790157
-0.5110167 -1.3027732 0.448074 0.65118474 -1.6884159 -1.0677186 -0.009953492 0.040351577
0.33780625 -0.21371982 -1.292524 -0.5415166 -0.26309752 -0.42340204 0.40060237 0.56188875
0.33600664 -0.40585825 0.3610177 -1.6660887 0.3785813 -1.2470496 -0.7647033 -1.2650874
-0.2454205 0.1660524 0.7769603 -0.2642763 0.5809093 0.18525143 -1.4028271 0.3131813
0.39929888 -1.3014437 -0.71839964 -2.1842556 0.1661477 -1.2573339 -1.7358385 -1.3759997
0.4853608 0.35660768 -0.75997615 -0.18740696 0.06827542 0.21118665 0.15634462 -0.58905673
0.8081155 -0.07355185 -0.9177622 0.21729903 1.0049742 -0.6034704 -0.84061795 0.0021811496
-0.49506292 0.12519005 1.1734815 0.50384396 0.760331 -0.755389 -0.6102436 -0.15995823
-0.46110144 1.3622465 -0.64449394 -1.3414248 -0.15871492 -0.16583553 -0.15197313 -0.9125175
-0.2923062 0.41593876 -1.6331937 0.020650407 0.2208195 0.5043256 1.0232517 -1.2508361
0.42510164 0.04254187 -0.9112995 -0.21776828 0.243361 0.24207534 -0.6303233 -0.17660977
0.16317983 0.41190344 0.5885098 0.3299836 -0.12134419 -1.0515515 0.14165042 -1.0677681
0.1377222 0.5068095 -1.5849153 -0.575598 -0.0070169307 0.20564543 0.49170417 0.8687171
-0.12941286 0.25672364 0.32588097 -0.81023765 0.18077895 0.76469064 0.5082654 0.35798922
-0.72403336 0.69373757 0.18323357 0.38498303 0.14362279 -1.2225082 0.4923299 -0.6121298
-1.0130993 -0.38115588 -0.5011983 -0.19495158 0.31704825 -1.1625992 0.18208176 0.028574599
-0.90625006 0.2722448 -0.7891021 0.049342144 -0.41398114 0.86810917 -0.18421093 0.0330452
0.3103964 0.25193346 -0.5406101 0.49853817 -1.9334322 -0.6026652 0.09804127 -0.37590915
-0.8506801 0.04456065 -0.11567961 -0.3674787 -0.6771859 0.73695093 -0.7996279 -1.0448735
0.4043605 -1.0614139 0.241499 -0.39203453 -1.581098 -0.89051116 -0.0019014486 -0.16898385
0.44656825 0.33346266 -0.3722487 -0.47205332 0.17671512 -0.772853 0.12596597 0.008755548
0.3575705 0.1780773 0.40537176 0.638558 -0.91251683 0.027403241 -0.24437119 -0.40965396
-1.2077711 0.58919185 -0.4853852 0.011979518 0.116005726 0.37949666 0.40456957 0.44120598
0.22650503 -0.5590819 0.5240884 -0.87587637 0.51612216 -0.9030837 -0.015107027 -1.0429785
0.43856558 0.00945173 0.5071225 0.74807763 0.35257903 -0.3055414 0.7486526 -1.77844
0.28201684 -1.0659457 0.27803135 -0.23160759 -0.33361074 -0.22494577 -0.03244072 -0.013664159
0.47670966 0.29820725 -0.38766 0.6817664 -1.0147274 0.53234464 -0.13726263 -0.24669017
00000000: 9ec1 203e 0efe a13e 0133 00bf 81b2 f33e
00000010: f842 28bf 4829 9a3e 94d7 96ba c278 edbe
00000020: c46b d1be c864 6a3f 84f0 a53e 925e eb3e
00000030: 5ab3 b7bd 9b81 7f3e 0297 123f 0555 f4be
00000040: 4cb3 60bf 5dd6 d0bf de01 1fbf 7bc1 923e
00000050: 794a 2ebf fffe 9dbe f53d 2d3f 3bc6 9d3d
00000060: 2278 d73d 9d07 f8be 8fe5 09be 9078 9cbe
00000070: c4d2 f0be 0c76 02c0 7023 a73d 4144 4cbf
00000080: 8efb 48bf 05d1 0a3f 6ed9 81be c1da 10bf
00000090: a48d 90be 9aeb b7bf f885 7f3f 1372 ea3e
000000a0: fed1 02bf 46c1 a6bf f569 e53e 0bb4 263f
000000b0: 031e d8bf 01ab 88bf f913 23bc b247 253d
000000c0: f1f4 ac3e 5ed9 5abe 6d71 a5bf d5a0 0abf
000000d0: b8b4 86be 27c8 d8be c11b cd3e f1d7 0f3f
000000e0: 1009 ac3e a7cc cfbe 50d7 b83e 6542 d5bf
000000f0: 68d5 c13e 529f 9fbf 98c3 43bf 62ee a1bf
00000100: 834f 7bbe a409 2a3e dfe6 463f 394f 87be
00000110: 79b6 143f 8db2 3d3e d78f b3bf 4d59 a03e
00000120: e770 cc3e b595 a6bf 0ae9 37bf d8ca 0bc0
00000130: 9f22 2a3e 51f0 a0bf f52f debf c220 b0bf
00000140: 3681 f83e 4895 b63e cc8d 42bf 9ce7 3fbe
00000150: fcd3 8b3d 5041 583e ce18 203e 6ccc 16bf
00000160: a8e0 4e3f 5aa2 96bd 77f2 6abf a383 5e3e
00000170: ffa2 803f 097d 1abf bd32 57bf 9ef1 0e3b
00000180: e378 fdbe d231 003e a434 963f ebfb 003f
00000190: 0da5 423f 2c61 41bf ed38 1cbf 17cc 23be
000001a0: 7d15 ecbe 185e ae3f 8efd 24bf cfb3 abbf
000001b0: 2a86 22be cad0 29be d89e 1bbe bf9a 69bf
000001c0: 29a9 95be edf5 d43e 7e0c d1bf 0b2b a93c
000001d0: 821e 623e 7c1b 013f e9f9 823f 661b a0bf
000001e0: eca6 d93e 6240 2e3d ed4a 69bf a6fe 5ebe
000001f0: a033 793e 99e2 773e de5c 21bf 31d9 34be
00000200: 9d18 273e 02e5 d23e 94a8 163f 9cf3 a83e
00000210: 4d83 f8bd 3d99 86bf cf0c 113e a0ac 88bf
00000220: 0c07 0d3e 44be 013f 81de cabf 645a 13bf
00000230: 48ee e5bb b794 523e a6c0 fb3e 3e64 5e3f
00000240: ce84 04be 4871 833e dfd9 a63e bc6b 4fbf
00000250: 1e1e 393e c4c2 433f ae1d 023f 5d4a b73e
00000260: 405a 39bf c998 313f 95a1 3b3e 7f1c c53e
00000270: da11 133e 267b 9cbf aa12 fc3e 8ab4 1cbf
00000280: 3dad 81bf dd26 c3be 884e 00bf 63a1 47be
00000290: 2654 a23e 0dd0 94bf a473 3a3e 4715 ea3c
000002a0: 0100 68bf ac63 8b3e 9802 4abf fd1a 4a3d
000002b0: 56f5 d3be 673c 5e3f caa1 3cbe 675a 073d
000002c0: 47ec 9e3e 6cfd 803e 6c65 0abf 6540 ff3e
000002d0: b57a f7bf 4448 1abf ddc9 c83d 2a77 c0be
000002e0: 2cc6 59bf 3a85 363d 6ee9 ecbd 2b26 bcbe
000002f0: 0e5c 2dbf d1a8 3c3f 6ab4 4cbf 6abe 85bf
00000300: 5708 cf3e 69dc 87bf 844b 773e c0b8 c8be
00000310: 6b61 cabf 8af8 63bf 073a f9ba 1a0a 2dbe
00000320: 98a4 e43e 9ebb aa3e 6297 bebe f9b0 f1be
00000330: cff4 343e b2d9 45bf 39fd 003e 6e73 0f3c
00000340: 7b13 b73e e559 363e e38c cf3e 8978 233f
00000350: b49a 69bf c37c e03c 713c 7abe 2abe d1be
00000360: 3e98 9abf 47d5 163f 6984 f8be be45 443c
00000370: 6994 ed3d 634d c23e be23 cf3e c0e5 e13e
00000380: eff0 673e fe1f 0fbf a82a 063f 6f39 60bf
00000390: 9520 043f 7e30 67bf 7783 77bc 5280 85bf
000003a0: ab8b e03e 6edb 1a3c c8d2 013f 0482 3f3f
000003b0: 3d85 b43e ec6f 9cbe b2a7 3f3f eca3 e3bf
000003c0: 8364 903e e970 88bf 205a 8e3e 8a2a 6dbe
000003d0: 07cf aabe 2f58 66be 8fe0 04bd a3df 5fbc
000003e0: 4a13 f43e 9fae 983e 5f7b c6be 3e88 2e3f
000003f0: 96e2 81bf bd47 083f 938e 0cbe 599c 7cbe

linear_relu_stack.3.bias f4 [10]
-0.3219324 -0.3172372 -0.60001695 0.060942724 0.3072023 -0.4004501 -0.022349237 -0.4583357
1.0231191 0.44034007
00000000: 53d4 a4be ea6c a2be b69a 19bf 149f 793d
00000010: 9f49 9d3e cc07 cdbe bf15 b7bc faaa eabe
00000020: 91f5 823f 4174 e13e
